…
.0+cu117, Device: cuda\n\n\n\n\nCode\n\"\"\"\nLoad your customized model \"ConvNet\" and its training settings.\nYou may choose the number of epochs that you would like to train.\nYou might want to use different optimizers or learning rates.\n\"\"\"\n\nEPOCHS = 30\nmodel = ConvNet().to(DEVICE)\noptimizer = torch.optim.Adam(model.parameters(), lr=0.001)\n# Adam, AdamW, RMSprop, SGD 전부 사용했는데 Adam이 가장 결과가 적절하게 나옴.\nscheduler = torch.optim.lr_scheduler.StepLR(optimizer, step_size=12, gamma=0.1)\ncriterion = nn.CrossEntropyLoss()\n\n\nprint(model)\n\n\nConvNet(\n  (conv_layers): Sequential(\n    (0): Conv2d(3, 32, kernel_size=(3, 3), stride=(1, 1), padding=(1, 1))\n    (1): ReLU()\n    (2): Conv2d(32, 32, kernel_size=(3, 3), stride=(1, 1), padding=(1, 1))\n    (3): ReLU()\n    (4): BatchNorm2d(32, eps=1e-05, momentum=0.1, affine=True, track_running_stats=True)\n    (5): MaxPool2d(kernel_size=2, stride=2, padding=0, dilation=1, ceil_mode=False)\n    (6): Dropout2d(p=0.25, inplace=False)\n    (7): Conv2d(32, 64, kernel_size=(3, 3), stride=(1, 1), padding=(1, 1))\n    (8): ReLU()\n    (9): BatchNorm2d(64, eps=1e-05, momentum=0.1, affine=True, track_running_stats=True)\n    (10): Conv2d(64, 64, kernel_size=(3, 3), stride=(1, 1), padding=(1, 1))\n    (11): ReLU()\n    (12): BatchNorm2d(64, eps=1e-05, momentum=0.1, affine=True, track_running_stats=True)\n    (13): MaxPool2d(kernel_size=2, stride=2, padding=0, dilation=1, ceil_mode=False)\n    (14): Dropout2d(p=0.3, inplace=False)\n    (15): Conv2d(64, 128, kernel_size=(3, 3), stride=(1, 1), padding=(1, 1))\n    (16): ReLU()\n    (17): BatchNorm2d(128, eps=1e-05, momentum=0.1, affine=True, track_running_stats=True)\n    (18): Conv2d(128, 128, kernel_size=(3, 3), stride=(1, 1), padding=(1, 1))\n    (19): ReLU()\n    (20): BatchNorm2d(128, eps=1e-05, momentum=0.1, affine=True, track_running_stats=True)\n    (21): MaxPool2d(kernel_size=2, stride=2, padding=0, dilation=1, ceil_mode=False)\n    (22): Dropout2d(p=0.35, inplace=False)\n  )\n  (fc_layers): Sequential(\n    (0): Linear(in_features=2048, out_features=1024, bias=True)\n    (1): BatchNorm1d(1024, eps=1e-05, momentum=0.1, affine=True, track_running_stats=True)\n    (2): ReLU()\n    (3): Linear(in_features=1024, out_features=10, bias=True)\n  )\n)\n\n\n\n\nCode\n\"\"\"\nTrain your model \"ConvNet\" with the augmented CIFAR-10 dataset.\nUpon successful training, test accuracy of your model should be above 70%.\n\nDo NOT modify.\n\"\"\"\n\nfor epoch in range(1, EPOCHS + 1):\n    train(model, train_loader, optimizer)\n    test_loss, test_accuracy = evaluate(model, test_loader)\n    print(\"
…
